…
20, warmup_steps=-1, weight_decay=0.05, weight_decay_end=None, width_factor=1.0, world_size=1)
Transform = 
Resize(size=256, interpolation=bicubic, max_size=None, antialias=None)
CenterCrop(size=(224, 224))
ToTensor()
Normalize(mean=(0.485, 0.456, 0.406), std=(0.229, 0.224, 0.225))
---------------------------
reading from datapath /home/sliu/project_space/datasets/sketch
Number of the class = 1000
Mixup is activated!
pretrained url https://github.com/SwinTransformer/storage/releases/download/v1.0.0/swin_tiny_patch4_window7_224.pth
Model = SwinTransformer(
  (patch_embed): PatchEmbed(
    (proj): Conv2d(3, 96, kernel_size=(4, 4), stride=(4, 4))
    (norm): LayerNorm((96,), eps=1e-05, elementwise_affine=True)
  )
  (pos_drop): Dropout(p=0.0, inplace=False)
  (layers): ModuleList(
    (0): BasicLayer(
      dim=96, input_resolution=(56, 56), depth=2
      (blocks): ModuleList(
        (0): SwinTransformerBlock(
          (norm1): LayerNorm((96,), eps=1e-05, elementwise_affine=True)
          (attn): WindowAttention(
            (qkv): Linear(in_features=96, out_features=288, bias=True)
            (attn_drop): Dropout(p=0.0, inplace=False)
            (proj): Linear(in_features=96, out_features=96, bias=True)
            (proj_drop): Dropout(p=0.0, inplace=False)
            (softmax): Softmax(dim=-1)
          )
          (drop_path): Identity()
          (norm2): LayerNorm((96,), eps=1e-05, elementwise_affine=True)
          (mlp): Mlp(
            (fc1): Linear(in_features=96, out_features=384, bias=True)
            (act): GELU()
            (fc2): Linear(in_features=384, out_features=96, bias=True)
            (drop): Dropout(p=0.0, inplace=False)
          )
        )
        (1): SwinTransformerBlock(
          (norm1): LayerNorm((96,), eps=1e-05, elementwise_affine=True)
          (attn): WindowAttention(
            (qkv): Linear(in_features=96, out_features=288, bias=True)
            (attn_drop): Dropout(p=0.0, inplace=False)
            (proj): Linear(in_features=96, out_features=96, bias=True)
            (proj_drop): Dropout(p=0.0, inplace=False)
            (softmax): Softmax(dim=-1)
          )
          (drop_path): DropPath()
          (norm2): LayerNorm((96,), eps=1e-05, elementwise_affine=True)
          (mlp): Mlp(
            (fc1): Linear(in_features=96, out_features=384, bias=True)
            (act): GELU()
            (fc2): Linear(in_features=384, out_features=96, bias=True)
            (drop): Dropout(p=0.0, inplace=False)
          )
        )
      )
      (downsample): PatchMerging(
        input_resolution=(56, 56), dim=96
        (reduction): Linear(in_features=384, out_features=192, bias=False)
        (norm): LayerNorm((384,), eps=1e-05, elementwise_affine=True)
      )
    )
    (1): BasicLayer(
      dim=192, input_resolution=(28, 28), depth=2
      (blocks): ModuleList(
        (0): SwinTransformerBlock(
          (norm1): LayerNorm((192,), eps=1e-05, elementwise_affine=True)
          (attn): WindowAttention(
            (qkv): Linear(in_features=192, out_features=576, bias=True)
            (attn_drop): Dropout(p=0.0, inplace=False)
            (proj): Linear(in_features=192, out_features=192, bias=True)
            (proj_drop): Dropout(p=0.0, inplace=False)
            (softmax): Softmax(dim=-1)
          )
          (drop_path): DropPath()
          (norm2): LayerNorm((192,), eps=1e-05, elementwise_affine=True)
          (mlp): Mlp(
            (fc1): Linear(in_features=192, out_features=768, bias=True)
            (act): GELU()
            (fc2): Linear(in_features=768, out_features=192, bias=True)
            (drop): Dropout(p=0.0, inplace=False)
          )
        )
        (1): SwinTransformerBlock(
          (norm1): LayerNorm((192,), eps=1e-05, elementwise_affine=True)
          (attn): WindowAttention(
            (qkv): Linear(in_features=192, out_features=576, bias=True)
            (attn_drop): Dropout(p=0.0, inplace=False)
            (proj): Linear(in_features=192, out_features=192, bias=True)
            (proj_drop): Dropout(p=0.0, inplace=False)
            (softmax): Softmax(dim=-1)
          )
          (drop_path): DropPath()
          (norm2): LayerNorm((192,), eps=1e-05, elementwise_affine=True)
          (mlp): Mlp(
            (fc1): Linear(in_features=192, out_features=768, bias=True)
            (act): GELU()
            (fc2): Linear(in_features=768, out_features=192, bias=True)
            (drop): Dropout(p=0.0, inplace=False)
          )
        )
      )
      (downsample): PatchMerging(
        input_resolution=(28, 28), dim=192
        (reduction): Linear(in_features=768, out_features=384, bias=False)
        (norm): LayerNorm((768,), eps=1e-05, elementwise_affine=True)
      )
    )
    (2): BasicLayer(
      dim=384, input_resolution=(14, 14), depth=6
      (blocks): ModuleList(
        (0): SwinTransformerBlock(
          (norm1): LayerNorm((384,), eps=1e-05, elementwise_affine=True)
          (attn): WindowAttention(
            (qkv): Linear(in_features=384, out_features=1152, bias=True)
            (attn_drop): Dropout(p=0.0, inplace=False)
            (proj): Linear(in_features=384, out_features=384, bias=True)
            (proj_drop): Dropout(p=0.0, inplace=False)
            (softmax): Softmax(dim=-1)
          )
          (drop_path): DropPath()
          (norm2): LayerNorm((384,), eps=1e-05, elementwise_affine=True)
          (mlp): Mlp(
            (fc1): Linear(in_features=384, out_features=1536, bias=True)
            (act): GELU()
            (fc2): Linear(in_features=1536, out_features=384, bias=True)
            (drop): Dropout(p=0.0, inplace=False)
          )
        )
        (1): SwinTransformerBlock(
          (norm1): LayerNorm((384,), eps=1e-05, elementwise_affine=True)
          (attn): WindowAttention(
            (qkv): Linear(in_features=384, out_features=1152, bias=True)
            (attn_drop): Dropout(p=0.0, inplace=False)
            (proj): Linear(in_features=384, out_features=384, bias=True)
            (proj_drop): Dropout(p=0.0, inplace=False)
            (softmax): Softmax(dim=-1)
          )
          (drop_path): DropPath()
          (norm2): LayerNorm((384,), eps=1e-05, elementwise_affine=True)
          (mlp): Mlp(
            (fc1): Linear(in_features=384, out_features=1536, bias=True)
            (act): GELU()
            (fc2): Linear(in_features=1536, out_features=384, bias=True)
            (drop): Dropout(p=0.0, inplace=False)
          )
        )
        (2): SwinTransformerBlock(
          (norm1): LayerNorm((384,), eps=1e-05, elementwise_affine=True)
          (attn): WindowAttention(
            (qkv): Linear(in_features=384, out_features=1152, bias=True)
            (attn_drop): Dropout(p=0.0, inplace=False)
            (proj): Linear(in_features=384, out_features=384, bias=True)
            (proj_drop): Dropout(p=0.0, inplace=False)
            (softmax): Softmax(dim=-1)
          )
          (drop_path): DropPath()
          (norm2): LayerNorm((384,), eps=1e-05, elementwise_affine=True)
          (mlp): Mlp(
            (fc1): Linear(in_features=384, out_features=1536, bias=True)
            (act): GELU()
            (fc2): Linear(in_features=1536, out_features=384, bias=True)
            (drop): Dropout(p=0.0, inplace=False)
          )
        )
        (3): SwinTransformerBlock(
          (norm1): LayerNorm((384,), eps=1e-05, elementwise_affine=True)
          (attn): WindowAttention(
            (qkv): Linear(in_features=384, out_features=1152, bias=True)
            (attn_drop): Dropout(p=0.0, inplace=False)
            (proj): Linear(in_features=384, out_features=384, bias=True)
            (proj_drop): Dropout(p=0.0, inplace=False)
            (softmax): Softmax(dim=-1)
          )
          (drop_path): DropPath()
          (norm2): LayerNorm((384,), eps=1e-05, elementwise_affine=True)
          (mlp): Mlp(
            (fc1): Linear(in_features=384, out_features=1536, bias=True)
            (act): GELU()
            (fc2): Linear(in_features=1536, out_features=384, bias=True)
            (drop): Dropout(p=0.0, inplace=False)
          )
        )
        (4): SwinTransformerBlock(
          (norm1): LayerNorm((384,), eps=1e-05, elementwise_affine=True)
          (attn): WindowAttention(
            (qkv): Linear(in_features=384, out_features=1152, bias=True)
            (attn_drop): Dropout(p=0.0, inplace=False)
            (proj): Linear(in_features=384, out_features=384, bias=True)
            (proj_drop): Dropout(p=0.0, inplace=False)
            (softmax): Softmax(dim=-1)
          )
          (drop_path): DropPath()
          (norm2): LayerNorm((384,), eps=1e-05, elementwise_affine=True)
          (mlp): Mlp(
            (fc1): Linear(in_features=384, out_features=1536, bias=True)
            (act): GELU()
            (fc2): Linear(in_features=1536, out_features=384, bias=True)
            (drop): Dropout(p=0.0, inplace=False)
          )
        )
        (5): SwinTransformerBlock(
          (norm1): LayerNorm((384,), eps=1e-05, elementwise_affine=True)
          (attn): WindowAttention(
            (qkv): Linear(in_features=384, out_features=1152, bias=True)
            (attn_drop): Dropout(p=0.0, inplace=False)
            (proj): Linear(in_features=384, out_features=384, bias=True)
            (proj_drop): Dropout(p=0.0, inplace=False)
            (softmax): Softmax(dim=-1)
          )
          (drop_path): DropPath()
          (norm2): LayerNorm((384,), eps=1e-05, elementwise_affine=True)
          (mlp): Mlp(
            (fc1): Linear(in_features=384, out_features=1536, bias=True)
            (act): GELU()
            (fc2): Linear(in_features=1536, out_features=384, bias=True)
            (drop): Dropout(p=0.0, inplace=False)
          )
        )
      )
      (downsample): PatchMerging(
        input_resolution=(14, 14), dim=384
        (reduction): Linear(in_features=1536, out_features=768, bias=False)
        (norm): LayerNorm((1536,), eps=1e-05, elementwise_affine=True)
      )
    )
    (3): BasicLayer(
      dim=768, input_resolution=(7, 7), depth=2
      (blocks): ModuleList(
        (0): SwinTransformerBlock(
          (norm1): LayerNorm((768,), eps=1e-05, elementwise_affine=True)
          (attn): WindowAttention(
            (qkv): Linear(in_features=768, out_features=2304, bias=True)
            (attn_drop): Dropout(p=0.0, inplace=False)
            (proj): Linear(in_features=768, out_features=768, bias=True)
            (proj_drop): Dropout(p=0.0, inplace=False)
            (softmax): Softmax(dim=-1)
          )
          (drop_path): DropPath()
          (norm2): LayerNorm((768,), eps=1e-05, elementwise_affine=True)
          (mlp): Mlp(
            (fc1): Linear(in_features=768, out_features=3072, bias=True)
            (act): GELU()
            (fc2): Linear(in_features=3072, out_features=768, bias=True)
            (drop): Dropout(p=0.0, inplace=False)
          )
        )
        (1): SwinTransformerBlock(
          (norm1): LayerNorm((768,), eps=1e-05, elementwise_affine=True)
          (attn): WindowAttention(
            (qkv): Linear(in_features=768, out_features=2304, bias=True)
            (attn_drop): Dropout(p=0.0, inplace=False)
            (proj): Linear(in_features=768, out_features=768, bias=True)
            (proj_drop): Dropout(p=0.0, inplace=False)
            (softmax): Softmax(dim=-1)
          )
          (drop_path): DropPath()
          (norm2): LayerNorm((768,), eps=1e-05, elementwise_affine=True)
          (mlp): Mlp(
            (fc1): Linear(in_features=768, out_features=3072, bias=True)
            (act): GELU()
            (fc2): Linear(in_features=3072, out_features=768, bias=True)
            (drop): Dropout(p=0.0, inplace=False)
          )
        )
      )
    )
  )
  (norm): LayerNorm((768,), eps=1e-05, elementwise_affine=True)
  (avgpool): AdaptiveAvgPool1d(output_size=1)
  (head): Linear(in_features=768, out_features=1000, bias=True)
)
number of params: 28288354
LR = 0.00400000
Batch size = 64
Update frequent = 1
Param groups = {
  "decay": {
    "weight_decay": 0.05,
    "params": [
      "patch_embed.proj.weight",
      "layers.0.blocks.0.attn.relative_position_bias_table",
      "layers.0.blocks.0.attn.qkv.weight",
      "layers.0.blocks.0.attn.proj.weight",
      "layers.0.blocks.0.mlp.fc1.weight",
…
eps=-1, weight_decay=0.05, weight_decay_end=None, width_factor=1.0, world_size=1)
Transform = 
Resize(size=256, interpolation=bicubic, max_size=None, antialias=None)
CenterCrop(size=(224, 224))
ToTensor()
Normalize(mean=(0.485, 0.456, 0.406), std=(0.229, 0.224, 0.225))
---------------------------
reading from datapath /home/sliu/project_space/datasets/sketch
Number of the class = 1000
Mixup is activated!
pretrained url https://github.com/rwightman/pytorch-image-models/releases/download/v0.1-weights/vit_small_p16_224-15ec54c9.pth
Model = VisionTransformer(
  (patch_embed): PatchEmbed(
    (proj): Conv2d(3, 768, kernel_size=(16, 16), stride=(16, 16))
    (norm): Identity()
  )
  (pos_drop): Dropout(p=0.0, inplace=False)
  (blocks): Sequential(
    (0): Block(
      (norm1): LayerNorm((768,), eps=1e-05, elementwise_affine=True)
      (attn): Attention(
        (qkv): Linear(in_features=768, out_features=2304, bias=False)
        (attn_drop): Dropout(p=0.0, inplace=False)
        (proj): Linear(in_features=768, out_features=768, bias=True)
        (proj_drop): Dropout(p=0.0, inplace=False)
      )
      (drop_path): Identity()
      (norm2): LayerNorm((768,), eps=1e-05, elementwise_affine=True)
      (mlp): Mlp(
        (fc1): Linear(in_features=768, out_features=2304, bias=True)
        (act): GELU()
        (fc2): Linear(in_features=2304, out_features=768, bias=True)
        (drop): Dropout(p=0.0, inplace=False)
      )
    )
    (1): Block(
      (norm1): LayerNorm((768,), eps=1e-05, elementwise_affine=True)
      (attn): Attention(
        (qkv): Linear(in_features=768, out_features=2304, bias=False)
        (attn_drop): Dropout(p=0.0, inplace=False)
        (proj): Linear(in_features=768, out_features=768, bias=True)
        (proj_drop): Dropout(p=0.0, inplace=False)
      )
      (drop_path): Identity()
      (norm2): LayerNorm((768,), eps=1e-05, elementwise_affine=True)
      (mlp): Mlp(
        (fc1): Linear(in_features=768, out_features=2304, bias=True)
        (act): GELU()
        (fc2): Linear(in_features=2304, out_features=768, bias=True)
        (drop): Dropout(p=0.0, inplace=False)
      )
    )
    (2): Block(
      (norm1): LayerNorm((768,), eps=1e-05, elementwise_affine=True)
      (attn): Attention(
        (qkv): Linear(in_features=768, out_features=2304, bias=False)
        (attn_drop): Dropout(p=0.0, inplace=False)
        (proj): Linear(in_features=768, out_features=768, bias=True)
        (proj_drop): Dropout(p=0.0, inplace=False)
      )
      (drop_path): Identity()
      (norm2): LayerNorm((768,), eps=1e-05, elementwise_affine=True)
      (mlp): Mlp(
        (fc1): Linear(in_features=768, out_features=2304, bias=True)
        (act): GELU()
        (fc2): Linear(in_features=2304, out_features=768, bias=True)
        (drop): Dropout(p=0.0, inplace=False)
      )
    )
    (3): Block(
      (norm1): LayerNorm((768,), eps=1e-05, elementwise_affine=True)
      (attn): Attention(
        (qkv): Linear(in_features=768, out_features=2304, bias=False)
        (attn_drop): Dropout(p=0.0, inplace=False)
        (proj): Linear(in_features=768, out_features=768, bias=True)
        (proj_drop): Dropout(p=0.0, inplace=False)
      )
      (drop_path): Identity()
      (norm2): LayerNorm((768,), eps=1e-05, elementwise_affine=True)
      (mlp): Mlp(
        (fc1): Linear(in_features=768, out_features=2304, bias=True)
        (act): GELU()
        (fc2): Linear(in_features=2304, out_features=768, bias=True)
        (drop): Dropout(p=0.0, inplace=False)
      )
    )
    (4): Block(
      (norm1): LayerNorm((768,), eps=1e-05, elementwise_affine=True)
      (attn): Attention(
        (qkv): Linear(in_features=768, out_features=2304, bias=False)
        (attn_drop): Dropout(p=0.0, inplace=False)
        (proj): Linear(in_features=768, out_features=768, bias=True)
        (proj_drop): Dropout(p=0.0, inplace=False)
      )
      (drop_path): Identity()
      (norm2): LayerNorm((768,), eps=1e-05, elementwise_affine=True)
      (mlp): Mlp(
        (fc1): Linear(in_features=768, out_features=2304, bias=True)
        (act): GELU()
        (fc2): Linear(in_features=2304, out_features=768, bias=True)
        (drop): Dropout(p=0.0, inplace=False)
      )
    )
    (5): Block(
      (norm1): LayerNorm((768,), eps=1e-05, elementwise_affine=True)
      (attn): Attention(
        (qkv): Linear(in_features=768, out_features=2304, bias=False)
        (attn_drop): Dropout(p=0.0, inplace=False)
        (proj): Linear(in_features=768, out_features=768, bias=True)
        (proj_drop): Dropout(p=0.0, inplace=False)
      )
      (drop_path): Identity()
      (norm2): LayerNorm((768,), eps=1e-05, elementwise_affine=True)
      (mlp): Mlp(
        (fc1): Linear(in_features=768, out_features=2304, bias=True)
        (act): GELU()
        (fc2): Linear(in_features=2304, out_features=768, bias=True)
        (drop): Dropout(p=0.0, inplace=False)
      )
    )
    (6): Block(
      (norm1): LayerNorm((768,), eps=1e-05, elementwise_affine=True)
      (attn): Attention(
        (qkv): Linear(in_features=768, out_features=2304, bias=False)
        (attn_drop): Dropout(p=0.0, inplace=False)
        (proj): Linear(in_features=768, out_features=768, bias=True)
        (proj_drop): Dropout(p=0.0, inplace=False)
      )
      (drop_path): Identity()
      (norm2): LayerNorm((768,), eps=1e-05, elementwise_affine=True)
      (mlp): Mlp(
        (fc1): Linear(in_features=768, out_features=2304, bias=True)
        (act): GELU()
        (fc2): Linear(in_features=2304, out_features=768, bias=True)
        (drop): Dropout(p=0.0, inplace=False)
      )
    )
    (7): Block(
      (norm1): LayerNorm((768,), eps=1e-05, elementwise_affine=True)
      (attn): Attention(
        (qkv): Linear(in_features=768, out_features=2304, bias=False)
        (attn_drop): Dropout(p=0.0, inplace=False)
        (proj): Linear(in_features=768, out_features=768, bias=True)
        (proj_drop): Dropout(p=0.0, inplace=False)
      )
      (drop_path): Identity()
      (norm2): LayerNorm((768,), eps=1e-05, elementwise_affine=True)
      (mlp): Mlp(
        (fc1): Linear(in_features=768, out_features=2304, bias=True)
        (act): GELU()
        (fc2): Linear(in_features=2304, out_features=768, bias=True)
        (drop): Dropout(p=0.0, inplace=False)
      )
    )
  )
  (norm): LayerNorm((768,), eps=1e-05, elementwise_affine=True)
  (pre_logits): Identity()
  (head): Linear(in_features=768, out_features=1000, bias=True)
)
number of params: 48754408
LR = 0.00400000
Batch size = 64
Update frequent = 1
Param groups = {
  "no_decay": {
    "weight_decay": 0.0,
    "params": [
      "cls_token",
      "pos_embed",
      "patch_embed.proj.bias",
      "blocks.0.norm1.weight",
      "blocks.0.norm1.bias",
      "blocks.0.attn.proj.bias",
      "blocks.0.norm2.weight",
      "blocks.0.norm2.bias",
…
n='bicubic', update_freq=1, update_frequency=100, use_amp=False, verbose=False, wandb_ckpt=False, warmup_epochs=20, warmup_steps=-1, weight_decay=0.05, weight_decay_end=None, width_factor=1.0, world_size=1)
Transform = 
Resize(size=256, interpolation=bicubic, max_size=None, antialias=None)
CenterCrop(size=(224, 224))
ToTensor()
Normalize(mean=(0.485, 0.456, 0.406), std=(0.229, 0.224, 0.225))
---------------------------
reading from datapath /home/sliu/project_space/datasets/sketch
Number of the class = 1000
Mixup is activated!
Model = CSWinTransformer(
  (stage1_conv_embed): Sequential(
    (0): Conv2d(3, 64, kernel_size=(7, 7), stride=(4, 4), padding=(2, 2))
    (1): Rearrange('b c h w -> b (h w) c', h=56, w=56)
    (2): LayerNorm((64,), eps=1e-05, elementwise_affine=True)
  )
  (stage1): ModuleList(
    (0): CSWinBlock(
      (qkv): Linear(in_features=64, out_features=192, bias=True)
      (norm1): LayerNorm((64,), eps=1e-05, elementwise_affine=True)
      (proj): Linear(in_features=64, out_features=64, bias=True)
      (proj_drop): Dropout(p=0.0, inplace=False)
      (attns): ModuleList(
        (0): LePEAttention(
          (get_v): Conv2d(32, 32, kernel_size=(3, 3), stride=(1, 1), padding=(1, 1), groups=32)
          (attn_drop): Dropout(p=0.0, inplace=False)
        )
        (1): LePEAttention(
          (get_v): Conv2d(32, 32, kernel_size=(3, 3), stride=(1, 1), padding=(1, 1), groups=32)
          (attn_drop): Dropout(p=0.0, inplace=False)
        )
      )
      (drop_path): Identity()
      (mlp): Mlp(
        (fc1): Linear(in_features=64, out_features=256, bias=True)
        (act): GELU()
        (fc2): Linear(in_features=256, out_features=64, bias=True)
        (drop): Dropout(p=0.0, inplace=False)
      )
      (norm2): LayerNorm((64,), eps=1e-05, elementwise_affine=True)
    )
  )
  (merge1): Merge_Block(
    (conv): Conv2d(64, 128, kernel_size=(3, 3), stride=(2, 2), padding=(1, 1))
    (norm): LayerNorm((128,), eps=1e-05, elementwise_affine=True)
  )
  (stage2): ModuleList(
    (0): CSWinBlock(
      (qkv): Linear(in_features=128, out_features=384, bias=True)
      (norm1): LayerNorm((128,), eps=1e-05, elementwise_affine=True)
      (proj): Linear(in_features=128, out_features=128, bias=True)
      (proj_drop): Dropout(p=0.0, inplace=False)
      (attns): ModuleList(
        (0): LePEAttention(
          (get_v): Conv2d(64, 64, kernel_size=(3, 3), stride=(1, 1), padding=(1, 1), groups=64)
          (attn_drop): Dropout(p=0.0, inplace=False)
        )
        (1): LePEAttention(
          (get_v): Conv2d(64, 64, kernel_size=(3, 3), stride=(1, 1), padding=(1, 1), groups=64)
          (attn_drop): Dropout(p=0.0, inplace=False)
        )
      )
      (drop_path): Identity()
      (mlp): Mlp(
        (fc1): Linear(in_features=128, out_features=512, bias=True)
        (act): GELU()
        (fc2): Linear(in_features=512, out_features=128, bias=True)
        (drop): Dropout(p=0.0, inplace=False)
      )
      (norm2): LayerNorm((128,), eps=1e-05, elementwise_affine=True)
    )
    (1): CSWinBlock(
      (qkv): Linear(in_features=128, out_features=384, bias=True)
      (norm1): LayerNorm((128,), eps=1e-05, elementwise_affine=True)
      (proj): Linear(in_features=128, out_features=128, bias=True)
      (proj_drop): Dropout(p=0.0, inplace=False)
      (attns): ModuleList(
        (0): LePEAttention(
          (get_v): Conv2d(64, 64, kernel_size=(3, 3), stride=(1, 1), padding=(1, 1), groups=64)
          (attn_drop): Dropout(p=0.0, inplace=False)
        )
        (1): LePEAttention(
          (get_v): Conv2d(64, 64, kernel_size=(3, 3), stride=(1, 1), padding=(1, 1), groups=64)
          (attn_drop): Dropout(p=0.0, inplace=False)
        )
      )
      (drop_path): Identity()
      (mlp): Mlp(
        (fc1): Linear(in_features=128, out_features=512, bias=True)
        (act): GELU()
        (fc2): Linear(in_features=512, out_features=128, bias=True)
        (drop): Dropout(p=0.0, inplace=False)
      )
      (norm2): LayerNorm((128,), eps=1e-05, elementwise_affine=True)
    )
  )
  (merge2): Merge_Block(
    (conv): Conv2d(128, 256, kernel_size=(3, 3), stride=(2, 2), padding=(1, 1))
    (norm): LayerNorm((256,), eps=1e-05, elementwise_affine=True)
  )
  (stage3): ModuleList(
    (0): CSWinBlock(
      (qkv): Linear(in_features=256, out_features=768, bias=True)
      (norm1): LayerNorm((256,), eps=1e-05, elementwise_affine=True)
      (proj): Linear(in_features=256, out_features=256, bias=True)
      (proj_drop): Dropout(p=0.0, inplace=False)
      (attns): ModuleList(
        (0): LePEAttention(
          (get_v): Conv2d(128, 128, kernel_size=(3, 3), stride=(1, 1), padding=(1, 1), groups=128)
          (attn_drop): Dropout(p=0.0, inplace=False)
        )
        (1): LePEAttention(
          (get_v): Conv2d(128, 128, kernel_size=(3, 3), stride=(1, 1), padding=(1, 1), groups=128)
          (attn_drop): Dropout(p=0.0, inplace=False)
        )
      )
      (drop_path): Identity()
      (mlp): Mlp(
        (fc1): Linear(in_features=256, out_features=1024, bias=True)
        (act): GELU()
        (fc2): Linear(in_features=1024, out_features=256, bias=True)
        (drop): Dropout(p=0.0, inplace=False)
      )
      (norm2): LayerNorm((256,), eps=1e-05, elementwise_affine=True)
    )
    (1): CSWinBlock(
      (qkv): Linear(in_features=256, out_features=768, bias=True)
      (norm1): LayerNorm((256,), eps=1e-05, elementwise_affine=True)
      (proj): Linear(in_features=256, out_features=256, bias=True)
      (proj_drop): Dropout(p=0.0, inplace=False)
      (attns): ModuleList(
        (0): LePEAttention(
          (get_v): Conv2d(128, 128, kernel_size=(3, 3), stride=(1, 1), padding=(1, 1), groups=128)
          (attn_drop): Dropout(p=0.0, inplace=False)
        )
        (1): LePEAttention(
          (get_v): Conv2d(128, 128, kernel_size=(3, 3), stride=(1, 1), padding=(1, 1), groups=128)
          (attn_drop): Dropout(p=0.0, inplace=False)
        )
      )
      (drop_path): Identity()
      (mlp): Mlp(
        (fc1): Linear(in_features=256, out_features=1024, bias=True)
        (act): GELU()
        (fc2): Linear(in_features=1024, out_features=256, bias=True)
        (drop): Dropout(p=0.0, inplace=False)
      )
      (norm2): LayerNorm((256,), eps=1e-05, elementwise_affine=True)
    )
    (2): CSWinBlock(
      (qkv): Linear(in_features=256, out_features=768, bias=True)
      (norm1): LayerNorm((256,), eps=1e-05, elementwise_affine=True)
      (proj): Linear(in_features=256, out_features=256, bias=True)
      (proj_drop): Dropout(p=0.0, inplace=False)
      (attns): ModuleList(
        (0): LePEAttention(
          (get_v): Conv2d(128, 128, kernel_size=(3, 3), stride=(1, 1), padding=(1, 1), groups=128)
          (attn_drop): Dropout(p=0.0, inplace=False)
        )
        (1): LePEAttention(
          (get_v): Conv2d(128, 128, kernel_size=(3, 3), stride=(1, 1), padding=(1, 1), groups=128)
          (attn_drop): Dropout(p=0.0, inplace=False)
        )
      )
      (drop_path): Identity()
      (mlp): Mlp(
        (fc1): Linear(in_features=256, out_features=1024, bias=True)
        (act): GELU()
        (fc2): Linear(in_features=1024, out_features=256, bias=True)
        (drop): Dropout(p=0.0, inplace=False)
      )
      (norm2): LayerNorm((256,), eps=1e-05, elementwise_affine=True)
    )
    (3): CSWinBlock(
      (qkv): Linear(in_features=256, out_features=768, bias=True)
      (norm1): LayerNorm((256,), eps=1e-05, elementwise_affine=True)
      (proj): Linear(in_features=256, out_features=256, bias=True)
      (proj_drop): Dropout(p=0.0, inplace=False)
      (attns): ModuleList(
        (0): LePEAttention(
          (get_v): Conv2d(128, 128, kernel_size=(3, 3), stride=(1, 1), padding=(1, 1), groups=128)
          (attn_drop): Dropout(p=0.0, inplace=False)
        )
        (1): LePEAttention(
          (get_v): Conv2d(128, 128, kernel_size=(3, 3), stride=(1, 1), padding=(1, 1), groups=128)
          (attn_drop): Dropout(p=0.0, inplace=False)
        )
      )
      (drop_path): Identity()
      (mlp): Mlp(
        (fc1): Linear(in_features=256, out_features=1024, bias=True)
        (act): GELU()
        (fc2): Linear(in_features=1024, out_features=256, bias=True)
        (drop): Dropout(p=0.0, inplace=False)
      )
      (norm2): LayerNorm((256,), eps=1e-05, elementwise_affine=True)
    )
    (4): CSWinBlock(
      (qkv): Linear(in_features=256, out_features=768, bias=True)
      (norm1): LayerNorm((256,), eps=1e-05, elementwise_affine=True)
      (proj): Linear(in_features=256, out_features=256, bias=True)
      (proj_drop): Dropout(p=0.0, inplace=False)
      (attns): ModuleList(
        (0): LePEAttention(
          (get_v): Conv2d(128, 128, kernel_size=(3, 3), stride=(1, 1), padding=(1, 1), groups=128)
          (attn_drop): Dropout(p=0.0, inplace=False)
        )
        (1): LePEAttention(
          (get_v): Conv2d(128, 128, kernel_size=(3, 3), stride=(1, 1), padding=(1, 1), groups=128)
          (attn_drop): Dropout(p=0.0, inplace=False)
        )
      )
      (drop_path): Identity()
      (mlp): Mlp(
        (fc1): Linear(in_features=256, out_features=1024, bias=True)
        (act): GELU()
        (fc2): Linear(in_features=1024, out_features=256, bias=True)
        (drop): Dropout(p=0.0, inplace=False)
      )
      (norm2): LayerNorm((256,), eps=1e-05, elementwise_affine=True)
    )
    (5): CSWinBlock(
      (qkv): Linear(in_features=256, out_features=768, bias=True)
      (norm1): LayerNorm((256,), eps=1e-05, elementwise_affine=True)
      (proj): Linear(in_features=256, out_features=256, bias=True)
      (proj_drop): Dropout(p=0.0, inplace=False)
      (attns): ModuleList(
        (0): LePEAttention(
          (get_v): Conv2d(128, 128, kernel_size=(3, 3), stride=(1, 1), padding=(1, 1), groups=128)
          (attn_drop): Dropout(p=0.0, inplace=False)
        )
        (1): LePEAttention(
          (get_v): Conv2d(128, 128, kernel_size=(3, 3), stride=(1, 1), padding=(1, 1), groups=128)
          (attn_drop): Dropout(p=0.0, inplace=False)
        )
      )
      (drop_path): Identity()
      (mlp): Mlp(
        (fc1): Linear(in_features=256, out_features=1024, bias=True)
        (act): GELU()
        (fc2): Linear(in_features=1024, out_features=256, bias=True)
        (drop): Dropout(p=0.0, inplace=False)
      )
      (norm2): LayerNorm((256,), eps=1e-05, elementwise_affine=True)
    )
    (6): CSWinBlock(
      (qkv): Linear(in_features=256, out_features=768, bias=True)
      (norm1): LayerNorm((256,), eps=1e-05, elementwise_affine=True)
      (proj): Linear(in_features=256, out_features=256, bias=True)
      (proj_drop): Dropout(p=0.0, inplace=False)
      (attns): ModuleList(
        (0): LePEAttention(
          (get_v): Conv2d(128, 128, kernel_size=(3, 3), stride=(1, 1), padding=(1, 1), groups=128)
          (attn_drop): Dropout(p=0.0, inplace=False)
        )
        (1): LePEAttention(
          (get_v): Conv2d(128, 128, kernel_size=(3, 3), stride=(1, 1), padding=(1, 1), groups=128)
          (attn_drop): Dropout(p=0.0, inplace=False)
        )
      )
      (drop_path): Identity()
      (mlp): Mlp(
        (fc1): Linear(in_features=256, out_features=1024, bias=True)
        (act): GELU()
        (fc2): Linear(in_features=1024, out_features=256, bias=True)
        (drop): Dropout(p=0.0, inplace=False)
      )
      (norm2): LayerNorm((256,), eps=1e-05, elementwise_affine=True)
    )
    (7): CSWinBlock(
      (qkv): Linear(in_features=256, out_features=768, bias=True)
      (norm1): LayerNorm((256,), eps=1e-05, elementwise_affine=True)
      (proj): Linear(in_features=256, out_features=256, bias=True)
      (proj_drop): Dropout(p=0.0, inplace=False)
      (attns): ModuleList(
        (0): LePEAttention(
          (get_v): Conv2d(128, 128, kernel_size=(3, 3), stride=(1, 1), padding=(1, 1), groups=128)
          (attn_drop): Dropout(p=0.0, inplace=False)
        )
        (1): LePEAttention(
          (get_v): Conv2d(128, 128, kernel_size=(3, 3), stride=(1, 1), padding=(1, 1), groups=128)
          (attn_drop): Dropout(p=0.0, inplace=False)
        )
      )
      (drop_path): Identity()
      (mlp): Mlp(
        (fc1): Linear(in_features=256, out_features=1024, bias=True)
        (act): GELU()
        (fc2): Linear(in_features=1024, out_features=256, bias=True)
        (drop): Dropout(p=0.0, inplace=False)
      )
      (norm2): LayerNorm((256,), eps=1e-05, elementwise_affine=True)
    )
    (8): CSWinBlock(
      (qkv): Linear(in_features=256, out_features=768, bias=True)
      (norm1): LayerNorm((256,), eps=1e-05, elementwise_affine=True)
      (proj): Linear(in_features=256, out_features=256, bias=True)
      (proj_drop): Dropout(p=0.0, inplace=False)
      (attns): ModuleList(
        (0): LePEAttention(
          (get_v): Conv2d(128, 128, kernel_size=(3, 3), stride=(1, 1), padding=(1, 1), groups=128)
          (attn_drop): Dropout(p=0.0, inplace=False)
        )
        (1): LePEAttention(
          (get_v): Conv2d(128, 128, kernel_size=(3, 3), stride=(1, 1), padding=(1, 1), groups=128)
          (attn_drop): Dropout(p=0.0, inplace=False)
        )
      )
      (drop_path): Identity()
      (mlp): Mlp(
        (fc1): Linear(in_features=256, out_features=1024, bias=True)
        (act): GELU()
        (fc2): Linear(in_features=1024, out_features=256, bias=True)
        (drop): Dropout(p=0.0, inplace=False)
      )
      (norm2): LayerNorm((256,), eps=1e-05, elementwise_affine=True)
    )
    (9): CSWinBlock(
      (qkv): Linear(in_features=256, out_features=768, bias=True)
      (norm1): LayerNorm((256,), eps=1e-05, elementwise_affine=True)
      (proj): Linear(in_features=256, out_features=256, bias=True)
      (proj_drop): Dropout(p=0.0, inplace=False)
      (attns): ModuleList(
        (0): LePEAttention(
          (get_v): Conv2d(128, 128, kernel_size=(3, 3), stride=(1, 1), padding=(1, 1), groups=128)
          (attn_drop): Dropout(p=0.0, inplace=False)
        )
        (1): LePEAttention(
          (get_v): Conv2d(128, 128, kernel_size=(3, 3), stride=(1, 1), padding=(1, 1), groups=128)
          (attn_drop): Dropout(p=0.0, inplace=False)
        )
      )
      (drop_path): Identity()
      (mlp): Mlp(
        (fc1): Linear(in_features=256, out_features=1024, bias=True)
        (act): GELU()
        (fc2): Linear(in_features=1024, out_features=256, bias=True)
        (drop): Dropout(p=0.0, inplace=False)
      )
      (norm2): LayerNorm((256,), eps=1e-05, elementwise_affine=True)
    )
    (10): CSWinBlock(
      (qkv): Linear(in_features=256, out_features=768, bias=True)
      (norm1): LayerNorm((256,), eps=1e-05, elementwise_affine=True)
      (proj): Linear(in_features=256, out_features=256, bias=True)
      (proj_drop): Dropout(p=0.0, inplace=False)
      (attns): ModuleList(
        (0): LePEAttention(
          (get_v): Conv2d(128, 128, kernel_size=(3, 3), stride=(1, 1), padding=(1, 1), groups=128)
          (attn_drop): Dropout(p=0.0, inplace=False)
        )
        (1): LePEAttention(
          (get_v): Conv2d(128, 128, kernel_size=(3, 3), stride=(1, 1), padding=(1, 1), groups=128)
          (attn_drop): Dropout(p=0.0, inplace=False)
        )
      )
      (drop_path): Identity()
      (mlp): Mlp(
        (fc1): Linear(in_features=256, out_features=1024, bias=True)
        (act): GELU()
        (fc2): Linear(in_features=1024, out_features=256, bias=True)
        (drop): Dropout(p=0.0, inplace=False)
      )
      (norm2): LayerNorm((256,), eps=1e-05, elementwise_affine=True)
    )
    (11): CSWinBlock(
      (qkv): Linear(in_features=256, out_features=768, bias=True)
      (norm1): LayerNorm((256,), eps=1e-05, elementwise_affine=True)
      (proj): Linear(in_features=256, out_features=256, bias=True)
      (proj_drop): Dropout(p=0.0, inplace=False)
      (attns): ModuleList(
        (0): LePEAttention(
          (get_v): Conv2d(128, 128, kernel_size=(3, 3), stride=(1, 1), padding=(1, 1), groups=128)
          (attn_drop): Dropout(p=0.0, inplace=False)
        )
        (1): LePEAttention(
          (get_v): Conv2d(128, 128, kernel_size=(3, 3), stride=(1, 1), padding=(1, 1), groups=128)
          (attn_drop): Dropout(p=0.0, inplace=False)
        )
      )
      (drop_path): Identity()
      (mlp): Mlp(
        (fc1): Linear(in_features=256, out_features=1024, bias=True)
        (act): GELU()
        (fc2): Linear(in_features=1024, out_features=256, bias=True)
        (drop): Dropout(p=0.0, inplace=False)
      )
      (norm2): LayerNorm((256,), eps=1e-05, elementwise_affine=True)
    )
    (12): CSWinBlock(
      (qkv): Linear(in_features=256, out_features=768, bias=True)
      (norm1): LayerNorm((256,), eps=1e-05, elementwise_affine=True)
      (proj): Linear(in_features=256, out_features=256, bias=True)
      (proj_drop): Dropout(p=0.0, inplace=False)
      (attns): ModuleList(
        (0): LePEAttention(
          (get_v): Conv2d(128, 128, kernel_size=(3, 3), stride=(1, 1), padding=(1, 1), groups=128)
          (attn_drop): Dropout(p=0.0, inplace=False)
        )
        (1): LePEAttention(
          (get_v): Conv2d(128, 128, kernel_size=(3, 3), stride=(1, 1), padding=(1, 1), groups=128)
          (attn_drop): Dropout(p=0.0, inplace=False)
        )
      )
      (drop_path): Identity()
      (mlp): Mlp(
        (fc1): Linear(in_features=256, out_features=1024, bias=True)
        (act): GELU()
        (fc2): Linear(in_features=1024, out_features=256, bias=True)
        (drop): Dropout(p=0.0, inplace=False)
      )
      (norm2): LayerNorm((256,), eps=1e-05, elementwise_affine=True)
    )
    (13): CSWinBlock(
      (qkv): Linear(in_features=256, out_features=768, bias=True)
      (norm1): LayerNorm((256,), eps=1e-05, elementwise_affine=True)
      (proj): Linear(in_features=256, out_features=256, bias=True)
      (proj_drop): Dropout(p=0.0, inplace=False)
      (attns): ModuleList(
        (0): LePEAttention(
          (get_v): Conv2d(128, 128, kernel_size=(3, 3), stride=(1, 1), padding=(1, 1), groups=128)
          (attn_drop): Dropout(p=0.0, inplace=False)
        )
        (1): LePEAttention(
          (get_v): Conv2d(128, 128, kernel_size=(3, 3), stride=(1, 1), padding=(1, 1), groups=128)
          (attn_drop): Dropout(p=0.0, inplace=False)
        )
      )
      (drop_path): Identity()
      (mlp): Mlp(
        (fc1): Linear(in_features=256, out_features=1024, bias=True)
        (act): GELU()
        (fc2): Linear(in_features=1024, out_features=256, bias=True)
        (drop): Dropout(p=0.0, inplace=False)
      )
      (norm2): LayerNorm((256,), eps=1e-05, elementwise_affine=True)
    )
    (14): CSWinBlock(
      (qkv): Linear(in_features=256, out_features=768, bias=True)
      (norm1): LayerNorm((256,), eps=1e-05, elementwise_affine=True)
      (proj): Linear(in_features=256, out_features=256, bias=True)
      (proj_drop): Dropout(p=0.0, inplace=False)
      (attns): ModuleList(
        (0): LePEAttention(
          (get_v): Conv2d(128, 128, kernel_size=(3, 3), stride=(1, 1), padding=(1, 1), groups=128)
          (attn_drop): Dropout(p=0.0, inplace=False)
        )
        (1): LePEAttention(
          (get_v): Conv2d(128, 128, kernel_size=(3, 3), stride=(1, 1), padding=(1, 1), groups=128)
          (attn_drop): Dropout(p=0.0, inplace=False)
        )
      )
      (drop_path): Identity()
      (mlp): Mlp(
        (fc1): Linear(in_features=256, out_features=1024, bias=True)
        (act): GELU()
        (fc2): Linear(in_features=1024, out_features=256, bias=True)
        (drop): Dropout(p=0.0, inplace=False)
      )
      (norm2): LayerNorm((256,), eps=1e-05, elementwise_affine=True)
    )
    (15): CSWinBlock(
      (qkv): Linear(in_features=256, out_features=768, bias=True)
      (norm1): LayerNorm((256,), eps=1e-05, elementwise_affine=True)
      (proj): Linear(in_features=256, out_features=256, bias=True)
      (proj_drop): Dropout(p=0.0, inplace=False)
      (attns): ModuleList(
        (0): LePEAttention(
          (get_v): Conv2d(128, 128, kernel_size=(3, 3), stride=(1, 1), padding=(1, 1), groups=128)
          (attn_drop): Dropout(p=0.0, inplace=False)
        )
        (1): LePEAttention(
          (get_v): Conv2d(128, 128, kernel_size=(3, 3), stride=(1, 1), padding=(1, 1), groups=128)
          (attn_drop): Dropout(p=0.0, inplace=False)
        )
      )
      (drop_path): Identity()
      (mlp): Mlp(
        (fc1): Linear(in_features=256, out_features=1024, bias=True)
        (act): GELU()
        (fc2): Linear(in_features=1024, out_features=256, bias=True)
        (drop): Dropout(p=0.0, inplace=False)
      )
      (norm2): LayerNorm((256,), eps=1e-05, elementwise_affine=True)
    )
    (16): CSWinBlock(
      (qkv): Linear(in_features=256, out_features=768, bias=True)
      (norm1): LayerNorm((256,), eps=1e-05, elementwise_affine=True)
      (proj): Linear(in_features=256, out_features=256, bias=True)
      (proj_drop): Dropout(p=0.0, inplace=False)
      (attns): ModuleList(
        (0): LePEAttention(
          (get_v): Conv2d(128, 128, kernel_size=(3, 3), stride=(1, 1), padding=(1, 1), groups=128)
          (attn_drop): Dropout(p=0.0, inplace=False)
        )
        (1): LePEAttention(
          (get_v): Conv2d(128, 128, kernel_size=(3, 3), stride=(1, 1), padding=(1, 1), groups=128)
          (attn_drop): Dropout(p=0.0, inplace=False)
        )
      )
      (drop_path): Identity()
      (mlp): Mlp(
        (fc1): Linear(in_features=256, out_features=1024, bias=True)
        (act): GELU()
        (fc2): Linear(in_features=1024, out_features=256, bias=True)
        (drop): Dropout(p=0.0, inplace=False)
      )
      (norm2): LayerNorm((256,), eps=1e-05, elementwise_affine=True)
    )
    (17): CSWinBlock(
      (qkv): Linear(in_features=256, out_features=768, bias=True)
      (norm1): LayerNorm((256,), eps=1e-05, elementwise_affine=True)
      (proj): Linear(in_features=256, out_features=256, bias=True)
      (proj_drop): Dropout(p=0.0, inplace=False)
      (attns): ModuleList(
        (0): LePEAttention(
          (get_v): Conv2d(128, 128, kernel_size=(3, 3), stride=(1, 1), padding=(1, 1), groups=128)
          (attn_drop): Dropout(p=0.0, inplace=False)
        )
        (1): LePEAttention(
          (get_v): Conv2d(128, 128, kernel_size=(3, 3), stride=(1, 1), padding=(1, 1), groups=128)
          (attn_drop): Dropout(p=0.0, inplace=False)
        )
      )
      (drop_path): Identity()
      (mlp): Mlp(
        (fc1): Linear(in_features=256, out_features=1024, bias=True)
        (act): GELU()
        (fc2): Linear(in_features=1024, out_features=256, bias=True)
        (drop): Dropout(p=0.0, inplace=False)
      )
      (norm2): LayerNorm((256,), eps=1e-05, elementwise_affine=True)
    )
    (18): CSWinBlock(
      (qkv): Linear(in_features=256, out_features=768, bias=True)
      (norm1): LayerNorm((256,), eps=1e-05, elementwise_affine=True)
      (proj): Linear(in_features=256, out_features=256, bias=True)
      (proj_drop): Dropout(p=0.0, inplace=False)
      (attns): ModuleList(
        (0): LePEAttention(
          (get_v): Conv2d(128, 128, kernel_size=(3, 3), stride=(1, 1), padding=(1, 1), groups=128)
          (attn_drop): Dropout(p=0.0, inplace=False)
        )
        (1): LePEAttention(
          (get_v): Conv2d(128, 128, kernel_size=(3, 3), stride=(1, 1), padding=(1, 1), groups=128)
          (attn_drop): Dropout(p=0.0, inplace=False)
        )
      )
      (drop_path): Identity()
      (mlp): Mlp(
        (fc1): Linear(in_features=256, out_features=1024, bias=True)
        (act): GELU()
        (fc2): Linear(in_features=1024, out_features=256, bias=True)
        (drop): Dropout(p=0.0, inplace=False)
      )
      (norm2): LayerNorm((256,), eps=1e-05, elementwise_affine=True)
    )
    (19): CSWinBlock(
      (qkv): Linear(in_features=256, out_features=768, bias=True)
      (norm1): LayerNorm((256,), eps=1e-05, elementwise_affine=True)
      (proj): Linear(in_features=256, out_features=256, bias=True)
      (proj_drop): Dropout(p=0.0, inplace=False)
      (attns): ModuleList(
        (0): LePEAttention(
          (get_v): Conv2d(128, 128, kernel_size=(3, 3), stride=(1, 1), padding=(1, 1), groups=128)
          (attn_drop): Dropout(p=0.0, inplace=False)
        )
        (1): LePEAttention(
          (get_v): Conv2d(128, 128, kernel_size=(3, 3), stride=(1, 1), padding=(1, 1), groups=128)
          (attn_drop): Dropout(p=0.0, inplace=False)
        )
      )
      (drop_path): Identity()
      (mlp): Mlp(
        (fc1): Linear(in_features=256, out_features=1024, bias=True)
        (act): GELU()
        (fc2): Linear(in_features=1024, out_features=256, bias=True)
        (drop): Dropout(p=0.0, inplace=False)
      )
      (norm2): LayerNorm((256,), eps=1e-05, elementwise_affine=True)
    )
    (20): CSWinBlock(
      (qkv): Linear(in_features=256, out_features=768, bias=True)
      (norm1): LayerNorm((256,), eps=1e-05, elementwise_affine=True)
      (proj): Linear(in_features=256, out_features=256, bias=True)
      (proj_drop): Dropout(p=0.0, inplace=False)
      (attns): ModuleList(
        (0): LePEAttention(
          (get_v): Conv2d(128, 128, kernel_size=(3, 3), stride=(1, 1), padding=(1, 1), groups=128)
          (attn_drop): Dropout(p=0.0, inplace=False)
        )
        (1): LePEAttention(
          (get_v): Conv2d(128, 128, kernel_size=(3, 3), stride=(1, 1), padding=(1, 1), groups=128)
          (attn_drop): Dropout(p=0.0, inplace=False)
        )
      )
      (drop_path): Identity()
      (mlp): Mlp(
        (fc1): Linear(in_features=256, out_features=1024, bias=True)
        (act): GELU()
        (fc2): Linear(in_features=1024, out_features=256, bias=True)
        (drop): Dropout(p=0.0, inplace=False)
      )
      (norm2): LayerNorm((256,), eps=1e-05, elementwise_affine=True)
    )
  )
  (merge3): Merge_Block(
    (conv): Conv2d(256, 512, kernel_size=(3, 3), stride=(2, 2), padding=(1, 1))
    (norm): LayerNorm((512,), eps=1e-05, elementwise_affine=True)
  )
  (stage4): ModuleList(
    (0): CSWinBlock(
      (qkv): Linear(in_features=512, out_features=1536, bias=True)
      (norm1): LayerNorm((512,), eps=1e-05, elementwise_affine=True)
      (proj): Linear(in_features=512, out_features=512, bias=True)
      (proj_drop): Dropout(p=0.0, inplace=False)
      (attns): ModuleList(
        (0): LePEAttention(
          (get_v): Conv2d(512, 512, kernel_size=(3, 3), stride=(1, 1), padding=(1, 1), groups=512)
          (attn_drop): Dropout(p=0.0, inplace=False)
        )
      )
      (drop_path): Identity()
      (mlp): Mlp(
        (fc1): Linear(in_features=512, out_features=2048, bias=True)
        (act): GELU()
        (fc2): Linear(in_features=2048, out_features=512, bias=True)
        (drop): Dropout(p=0.0, inplace=False)
      )
      (norm2): LayerNorm((512,), eps=1e-05, elementwise_affine=True)
    )
  )
  (norm): LayerNorm((512,), eps=1e-05, elementwise_affine=True)
  (head): Linear(in_features=512, out_features=1000, bias=True)
)
number of params: 22320552
LR = 0.00400000
Batch size = 64
Update frequent = 1
Param groups = {
  "decay": {
    "weight_decay": 0.05,
    "params": [
      "stage1_conv_embed.0.weight",
      "stage1.0.qkv.weight",
      "stage1.0.proj.weight",
      "stage1.0.attns.0.get_v.weight",
      "stage1.0.attns.1.get_v.weight",
      "stage1.0.mlp.fc1.weight",
…
date_freq=1, update_frequency=100, use_amp=False, verbose=False, wandb_ckpt=False, warmup_epochs=20, warmup_steps=-1, weight_decay=0.05, weight_decay_end=None, width_factor=1.0, world_size=1)
Transform = 
Resize(size=256, interpolation=bicubic, max_size=None, antialias=None)
CenterCrop(size=(224, 224))
ToTensor()
Normalize(mean=(0.485, 0.456, 0.406), std=(0.229, 0.224, 0.225))
---------------------------
reading from datapath /home/sliu/project_space/datasets/sketch
Number of the class = 1000
Mixup is activated!
Model = ConvNeXt(
  (downsample_layers): ModuleList(
    (0): Sequential(
      (0): Conv2d(3, 96, kernel_size=(4, 4), stride=(4, 4))
      (1): LayerNorm()
    )
    (1): Sequential(
      (0): LayerNorm()
      (1): Conv2d(96, 192, kernel_size=(2, 2), stride=(2, 2))
    )
    (2): Sequential(
      (0): LayerNorm()
      (1): Conv2d(192, 384, kernel_size=(2, 2), stride=(2, 2))
    )
    (3): Sequential(
      (0): LayerNorm()
      (1): Conv2d(384, 768, kernel_size=(2, 2), stride=(2, 2))
    )
  )
  (stages): ModuleList(
    (0): Sequential(
      (0): Block(
        (dwconv): Conv2d(96, 96, kernel_size=(7, 7), stride=(1, 1), padding=(3, 3), groups=96)
        (norm): LayerNorm()
        (pwconv1): Linear(in_features=96, out_features=384, bias=True)
        (act): GELU()
        (pwconv2): Linear(in_features=384, out_features=96, bias=True)
        (drop_path): Identity()
      )
      (1): Block(
        (dwconv): Conv2d(96, 96, kernel_size=(7, 7), stride=(1, 1), padding=(3, 3), groups=96)
        (norm): LayerNorm()
        (pwconv1): Linear(in_features=96, out_features=384, bias=True)
        (act): GELU()
        (pwconv2): Linear(in_features=384, out_features=96, bias=True)
        (drop_path): DropPath()
      )
      (2): Block(
        (dwconv): Conv2d(96, 96, kernel_size=(7, 7), stride=(1, 1), padding=(3, 3), groups=96)
        (norm): LayerNorm()
        (pwconv1): Linear(in_features=96, out_features=384, bias=True)
        (act): GELU()
        (pwconv2): Linear(in_features=384, out_features=96, bias=True)
        (drop_path): DropPath()
      )
    )
    (1): Sequential(
      (0): Block(
        (dwconv): Conv2d(192, 192, kernel_size=(7, 7), stride=(1, 1), padding=(3, 3), groups=192)
        (norm): LayerNorm()
        (pwconv1): Linear(in_features=192, out_features=768, bias=True)
        (act): GELU()
        (pwconv2): Linear(in_features=768, out_features=192, bias=True)
        (drop_path): DropPath()
      )
      (1): Block(
        (dwconv): Conv2d(192, 192, kernel_size=(7, 7), stride=(1, 1), padding=(3, 3), groups=192)
        (norm): LayerNorm()
        (pwconv1): Linear(in_features=192, out_features=768, bias=True)
        (act): GELU()
        (pwconv2): Linear(in_features=768, out_features=192, bias=True)
        (drop_path): DropPath()
      )
      (2): Block(
        (dwconv): Conv2d(192, 192, kernel_size=(7, 7), stride=(1, 1), padding=(3, 3), groups=192)
        (norm): LayerNorm()
        (pwconv1): Linear(in_features=192, out_features=768, bias=True)
        (act): GELU()
        (pwconv2): Linear(in_features=768, out_features=192, bias=True)
        (drop_path): DropPath()
      )
    )
    (2): Sequential(
      (0): Block(
        (dwconv): Conv2d(384, 384, kernel_size=(7, 7), stride=(1, 1), padding=(3, 3), groups=384)
        (norm): LayerNorm()
        (pwconv1): Linear(in_features=384, out_features=1536, bias=True)
        (act): GELU()
        (pwconv2): Linear(in_features=1536, out_features=384, bias=True)
        (drop_path): DropPath()
      )
      (1): Block(
        (dwconv): Conv2d(384, 384, kernel_size=(7, 7), stride=(1, 1), padding=(3, 3), groups=384)
        (norm): LayerNorm()
        (pwconv1): Linear(in_features=384, out_features=1536, bias=True)
        (act): GELU()
        (pwconv2): Linear(in_features=1536, out_features=384, bias=True)
        (drop_path): DropPath()
      )
      (2): Block(
        (dwconv): Conv2d(384, 384, kernel_size=(7, 7), stride=(1, 1), padding=(3, 3), groups=384)
        (norm): LayerNorm()
        (pwconv1): Linear(in_features=384, out_features=1536, bias=True)
        (act): GELU()
        (pwconv2): Linear(in_features=1536, out_features=384, bias=True)
        (drop_path): DropPath()
      )
      (3): Block(
        (dwconv): Conv2d(384, 384, kernel_size=(7, 7), stride=(1, 1), padding=(3, 3), groups=384)
        (norm): LayerNorm()
        (pwconv1): Linear(in_features=384, out_features=1536, bias=True)
        (act): GELU()
        (pwconv2): Linear(in_features=1536, out_features=384, bias=True)
        (drop_path): DropPath()
      )
      (4): Block(
        (dwconv): Conv2d(384, 384, kernel_size=(7, 7), stride=(1, 1), padding=(3, 3), groups=384)
        (norm): LayerNorm()
        (pwconv1): Linear(in_features=384, out_features=1536, bias=True)
        (act): GELU()
        (pwconv2): Linear(in_features=1536, out_features=384, bias=True)
        (drop_path): DropPath()
      )
      (5): Block(
        (dwconv): Conv2d(384, 384, kernel_size=(7, 7), stride=(1, 1), padding=(3, 3), groups=384)
        (norm): LayerNorm()
        (pwconv1): Linear(in_features=384, out_features=1536, bias=True)
        (act): GELU()
        (pwconv2): Linear(in_features=1536, out_features=384, bias=True)
        (drop_path): DropPath()
      )
      (6): Block(
        (dwconv): Conv2d(384, 384, kernel_size=(7, 7), stride=(1, 1), padding=(3, 3), groups=384)
        (norm): LayerNorm()
        (pwconv1): Linear(in_features=384, out_features=1536, bias=True)
        (act): GELU()
        (pwconv2): Linear(in_features=1536, out_features=384, bias=True)
        (drop_path): DropPath()
      )
      (7): Block(
        (dwconv): Conv2d(384, 384, kernel_size=(7, 7), stride=(1, 1), padding=(3, 3), groups=384)
        (norm): LayerNorm()
        (pwconv1): Linear(in_features=384, out_features=1536, bias=True)
        (act): GELU()
        (pwconv2): Linear(in_features=1536, out_features=384, bias=True)
        (drop_path): DropPath()
      )
      (8): Block(
        (dwconv): Conv2d(384, 384, kernel_size=(7, 7), stride=(1, 1), padding=(3, 3), groups=384)
        (norm): LayerNorm()
        (pwconv1): Linear(in_features=384, out_features=1536, bias=True)
        (act): GELU()
        (pwconv2): Linear(in_features=1536, out_features=384, bias=True)
        (drop_path): DropPath()
      )
    )
    (3): Sequential(
      (0): Block(
        (dwconv): Conv2d(768, 768, kernel_size=(7, 7), stride=(1, 1), padding=(3, 3), groups=768)
        (norm): LayerNorm()
        (pwconv1): Linear(in_features=768, out_features=3072, bias=True)
        (act): GELU()
        (pwconv2): Linear(in_features=3072, out_features=768, bias=True)
        (drop_path): DropPath()
      )
      (1): Block(
        (dwconv): Conv2d(768, 768, kernel_size=(7, 7), stride=(1, 1), padding=(3, 3), groups=768)
        (norm): LayerNorm()
        (pwconv1): Linear(in_features=768, out_features=3072, bias=True)
        (act): GELU()
        (pwconv2): Linear(in_features=3072, out_features=768, bias=True)
        (drop_path): DropPath()
      )
      (2): Block(
        (dwconv): Conv2d(768, 768, kernel_size=(7, 7), stride=(1, 1), padding=(3, 3), groups=768)
        (norm): LayerNorm()
        (pwconv1): Linear(in_features=768, out_features=3072, bias=True)
        (act): GELU()
        (pwconv2): Linear(in_features=3072, out_features=768, bias=True)
        (drop_path): DropPath()
      )
    )
  )
  (norm): LayerNorm((768,), eps=1e-06, elementwise_affine=True)
  (head): Linear(in_features=768, out_features=1000, bias=True)
)
number of params: 28589128
LR = 0.00400000
Batch size = 64
Update frequent = 1
Param groups = {
  "decay": {
    "weight_decay": 0.05,
    "params": [
      "downsample_layers.0.0.weight",
      "downsample_layers.1.1.weight",
      "downsample_layers.2.1.weight",
      "downsample_layers.3.1.weight",
      "stages.0.0.dwconv.weight",
      "stages.0.0.pwconv1.weight",
…
, update_freq=1, update_frequency=100, use_amp=False, verbose=False, wandb_ckpt=False, warmup_epochs=20, warmup_steps=-1, weight_decay=0.05, weight_decay_end=None, width_factor=1.0, world_size=1)
Transform = 
Resize(size=256, interpolation=bicubic, max_size=None, antialias=None)
CenterCrop(size=(224, 224))
ToTensor()
Normalize(mean=(0.485, 0.456, 0.406), std=(0.229, 0.224, 0.225))
---------------------------
reading from datapath /home/sliu/project_space/datasets/sketch
Number of the class = 1000
Mixup is activated!
Model = SLaK(
  (downsample_layers): ModuleList(
    (0): Sequential(
      (0): Conv2d(3, 96, kernel_size=(4, 4), stride=(4, 4))
      (1): LayerNorm()
    )
    (1): Sequential(
      (0): LayerNorm()
      (1): Conv2d(96, 192, kernel_size=(2, 2), stride=(2, 2))
    )
    (2): Sequential(
      (0): LayerNorm()
      (1): Conv2d(192, 384, kernel_size=(2, 2), stride=(2, 2))
    )
    (3): Sequential(
      (0): LayerNorm()
      (1): Conv2d(384, 768, kernel_size=(2, 2), stride=(2, 2))
    )
  )
  (stages): ModuleList(
    (0): Sequential(
      (0): Block(
        (large_kernel): ReparamLargeKernelConv(
          (lkb_origin): Sequential(
            (conv): DepthWiseConv2dImplicitGEMM(96, 96, kernel_size=(51, 51), stride=(1, 1), groups=96, bias=False)
            (bn): SyncBatchNorm(96, eps=1e-05, momentum=0.1, affine=True, track_running_stats=True)
          )
          (small_conv): Sequential(
            (conv): DepthWiseConv2dImplicitGEMM(96, 96, kernel_size=(5, 5), stride=(1, 1), groups=96, bias=False)
            (bn): SyncBatchNorm(96, eps=1e-05, momentum=0.1, affine=True, track_running_stats=True)
          )
        )
        (norm): LayerNorm()
        (pwconv1): Linear(in_features=96, out_features=384, bias=True)
        (act): GELU()
        (pwconv2): Linear(in_features=384, out_features=96, bias=True)
        (drop_path): Identity()
      )
      (1): Block(
        (large_kernel): ReparamLargeKernelConv(
          (lkb_origin): Sequential(
            (conv): DepthWiseConv2dImplicitGEMM(96, 96, kernel_size=(51, 51), stride=(1, 1), groups=96, bias=False)
            (bn): SyncBatchNorm(96, eps=1e-05, momentum=0.1, affine=True, track_running_stats=True)
          )
          (small_conv): Sequential(
            (conv): DepthWiseConv2dImplicitGEMM(96, 96, kernel_size=(5, 5), stride=(1, 1), groups=96, bias=False)
            (bn): SyncBatchNorm(96, eps=1e-05, momentum=0.1, affine=True, track_running_stats=True)
          )
        )
        (norm): LayerNorm()
        (pwconv1): Linear(in_features=96, out_features=384, bias=True)
        (act): GELU()
        (pwconv2): Linear(in_features=384, out_features=96, bias=True)
        (drop_path): DropPath()
      )
      (2): Block(
        (large_kernel): ReparamLargeKernelConv(
          (lkb_origin): Sequential(
            (conv): DepthWiseConv2dImplicitGEMM(96, 96, kernel_size=(51, 51), stride=(1, 1), groups=96, bias=False)
            (bn): SyncBatchNorm(96, eps=1e-05, momentum=0.1, affine=True, track_running_stats=True)
          )
          (small_conv): Sequential(
            (conv): DepthWiseConv2dImplicitGEMM(96, 96, kernel_size=(5, 5), stride=(1, 1), groups=96, bias=False)
            (bn): SyncBatchNorm(96, eps=1e-05, momentum=0.1, affine=True, track_running_stats=True)
          )
        )
        (norm): LayerNorm()
        (pwconv1): Linear(in_features=96, out_features=384, bias=True)
        (act): GELU()
        (pwconv2): Linear(in_features=384, out_features=96, bias=True)
        (drop_path): DropPath()
      )
    )
    (1): Sequential(
      (0): Block(
        (large_kernel): ReparamLargeKernelConv(
          (lkb_origin): Sequential(
            (conv): DepthWiseConv2dImplicitGEMM(192, 192, kernel_size=(49, 49), stride=(1, 1), groups=192, bias=False)
            (bn): SyncBatchNorm(192, eps=1e-05, momentum=0.1, affine=True, track_running_stats=True)
          )
          (small_conv): Sequential(
            (conv): DepthWiseConv2dImplicitGEMM(192, 192, kernel_size=(5, 5), stride=(1, 1), groups=192, bias=False)
            (bn): SyncBatchNorm(192, eps=1e-05, momentum=0.1, affine=True, track_running_stats=True)
          )
        )
        (norm): LayerNorm()
        (pwconv1): Linear(in_features=192, out_features=768, bias=True)
        (act): GELU()
        (pwconv2): Linear(in_features=768, out_features=192, bias=True)
        (drop_path): DropPath()
      )
      (1): Block(
        (large_kernel): ReparamLargeKernelConv(
          (lkb_origin): Sequential(
            (conv): DepthWiseConv2dImplicitGEMM(192, 192, kernel_size=(49, 49), stride=(1, 1), groups=192, bias=False)
            (bn): SyncBatchNorm(192, eps=1e-05, momentum=0.1, affine=True, track_running_stats=True)
          )
          (small_conv): Sequential(
            (conv): DepthWiseConv2dImplicitGEMM(192, 192, kernel_size=(5, 5), stride=(1, 1), groups=192, bias=False)
            (bn): SyncBatchNorm(192, eps=1e-05, momentum=0.1, affine=True, track_running_stats=True)
          )
        )
        (norm): LayerNorm()
        (pwconv1): Linear(in_features=192, out_features=768, bias=True)
        (act): GELU()
        (pwconv2): Linear(in_features=768, out_features=192, bias=True)
        (drop_path): DropPath()
      )
      (2): Block(
        (large_kernel): ReparamLargeKernelConv(
          (lkb_origin): Sequential(
            (conv): DepthWiseConv2dImplicitGEMM(192, 192, kernel_size=(49, 49), stride=(1, 1), groups=192, bias=False)
            (bn): SyncBatchNorm(192, eps=1e-05, momentum=0.1, affine=True, track_running_stats=True)
          )
          (small_conv): Sequential(
            (conv): DepthWiseConv2dImplicitGEMM(192, 192, kernel_size=(5, 5), stride=(1, 1), groups=192, bias=False)
            (bn): SyncBatchNorm(192, eps=1e-05, momentum=0.1, affine=True, track_running_stats=True)
          )
        )
        (norm): LayerNorm()
        (pwconv1): Linear(in_features=192, out_features=768, bias=True)
        (act): GELU()
        (pwconv2): Linear(in_features=768, out_features=192, bias=True)
        (drop_path): DropPath()
      )
    )
    (2): Sequential(
      (0): Block(
        (large_kernel): ReparamLargeKernelConv(
          (lkb_origin): Sequential(
            (conv): DepthWiseConv2dImplicitGEMM(384, 384, kernel_size=(47, 47), stride=(1, 1), groups=384, bias=False)
            (bn): SyncBatchNorm(384, eps=1e-05, momentum=0.1, affine=True, track_running_stats=True)
          )
          (small_conv): Sequential(
            (conv): DepthWiseConv2dImplicitGEMM(384, 384, kernel_size=(5, 5), stride=(1, 1), groups=384, bias=False)
            (bn): SyncBatchNorm(384, eps=1e-05, momentum=0.1, affine=True, track_running_stats=True)
          )
        )
        (norm): LayerNorm()
        (pwconv1): Linear(in_features=384, out_features=1536, bias=True)
        (act): GELU()
        (pwconv2): Linear(in_features=1536, out_features=384, bias=True)
        (drop_path): DropPath()
      )
      (1): Block(
        (large_kernel): ReparamLargeKernelConv(
          (lkb_origin): Sequential(
            (conv): DepthWiseConv2dImplicitGEMM(384, 384, kernel_size=(47, 47), stride=(1, 1), groups=384, bias=False)
            (bn): SyncBatchNorm(384, eps=1e-05, momentum=0.1, affine=True, track_running_stats=True)
          )
          (small_conv): Sequential(
            (conv): DepthWiseConv2dImplicitGEMM(384, 384, kernel_size=(5, 5), stride=(1, 1), groups=384, bias=False)
            (bn): SyncBatchNorm(384, eps=1e-05, momentum=0.1, affine=True, track_running_stats=True)
          )
        )
        (norm): LayerNorm()
        (pwconv1): Linear(in_features=384, out_features=1536, bias=True)
        (act): GELU()
        (pwconv2): Linear(in_features=1536, out_features=384, bias=True)
        (drop_path): DropPath()
      )
      (2): Block(
        (large_kernel): ReparamLargeKernelConv(
          (lkb_origin): Sequential(
            (conv): DepthWiseConv2dImplicitGEMM(384, 384, kernel_size=(47, 47), stride=(1, 1), groups=384, bias=False)
            (bn): SyncBatchNorm(384, eps=1e-05, momentum=0.1, affine=True, track_running_stats=True)
          )
          (small_conv): Sequential(
            (conv): DepthWiseConv2dImplicitGEMM(384, 384, kernel_size=(5, 5), stride=(1, 1), groups=384, bias=False)
            (bn): SyncBatchNorm(384, eps=1e-05, momentum=0.1, affine=True, track_running_stats=True)
          )
        )
        (norm): LayerNorm()
        (pwconv1): Linear(in_features=384, out_features=1536, bias=True)
        (act): GELU()
        (pwconv2): Linear(in_features=1536, out_features=384, bias=True)
        (drop_path): DropPath()
      )
      (3): Block(
        (large_kernel): ReparamLargeKernelConv(
          (lkb_origin): Sequential(
            (conv): DepthWiseConv2dImplicitGEMM(384, 384, kernel_size=(47, 47), stride=(1, 1), groups=384, bias=False)
            (bn): SyncBatchNorm(384, eps=1e-05, momentum=0.1, affine=True, track_running_stats=True)
          )
          (small_conv): Sequential(
            (conv): DepthWiseConv2dImplicitGEMM(384, 384, kernel_size=(5, 5), stride=(1, 1), groups=384, bias=False)
            (bn): SyncBatchNorm(384, eps=1e-05, momentum=0.1, affine=True, track_running_stats=True)
          )
        )
        (norm): LayerNorm()
        (pwconv1): Linear(in_features=384, out_features=1536, bias=True)
        (act): GELU()
        (pwconv2): Linear(in_features=1536, out_features=384, bias=True)
        (drop_path): DropPath()
      )
      (4): Block(
        (large_kernel): ReparamLargeKernelConv(
          (lkb_origin): Sequential(
            (conv): DepthWiseConv2dImplicitGEMM(384, 384, kernel_size=(47, 47), stride=(1, 1), groups=384, bias=False)
            (bn): SyncBatchNorm(384, eps=1e-05, momentum=0.1, affine=True, track_running_stats=True)
          )
          (small_conv): Sequential(
            (conv): DepthWiseConv2dImplicitGEMM(384, 384, kernel_size=(5, 5), stride=(1, 1), groups=384, bias=False)
            (bn): SyncBatchNorm(384, eps=1e-05, momentum=0.1, affine=True, track_running_stats=True)
          )
        )
        (norm): LayerNorm()
        (pwconv1): Linear(in_features=384, out_features=1536, bias=True)
        (act): GELU()
        (pwconv2): Linear(in_features=1536, out_features=384, bias=True)
        (drop_path): DropPath()
      )
      (5): Block(
        (large_kernel): ReparamLargeKernelConv(
          (lkb_origin): Sequential(
            (conv): DepthWiseConv2dImplicitGEMM(384, 384, kernel_size=(47, 47), stride=(1, 1), groups=384, bias=False)
            (bn): SyncBatchNorm(384, eps=1e-05, momentum=0.1, affine=True, track_running_stats=True)
          )
          (small_conv): Sequential(
            (conv): DepthWiseConv2dImplicitGEMM(384, 384, kernel_size=(5, 5), stride=(1, 1), groups=384, bias=False)
            (bn): SyncBatchNorm(384, eps=1e-05, momentum=0.1, affine=True, track_running_stats=True)
          )
        )
        (norm): LayerNorm()
        (pwconv1): Linear(in_features=384, out_features=1536, bias=True)
        (act): GELU()
        (pwconv2): Linear(in_features=1536, out_features=384, bias=True)
        (drop_path): DropPath()
      )
      (6): Block(
        (large_kernel): ReparamLargeKernelConv(
          (lkb_origin): Sequential(
            (conv): DepthWiseConv2dImplicitGEMM(384, 384, kernel_size=(47, 47), stride=(1, 1), groups=384, bias=False)
            (bn): SyncBatchNorm(384, eps=1e-05, momentum=0.1, affine=True, track_running_stats=True)
          )
          (small_conv): Sequential(
            (conv): DepthWiseConv2dImplicitGEMM(384, 384, kernel_size=(5, 5), stride=(1, 1), groups=384, bias=False)
            (bn): SyncBatchNorm(384, eps=1e-05, momentum=0.1, affine=True, track_running_stats=True)
          )
        )
        (norm): LayerNorm()
        (pwconv1): Linear(in_features=384, out_features=1536, bias=True)
        (act): GELU()
        (pwconv2): Linear(in_features=1536, out_features=384, bias=True)
        (drop_path): DropPath()
      )
      (7): Block(
        (large_kernel): ReparamLargeKernelConv(
          (lkb_origin): Sequential(
            (conv): DepthWiseConv2dImplicitGEMM(384, 384, kernel_size=(47, 47), stride=(1, 1), groups=384, bias=False)
            (bn): SyncBatchNorm(384, eps=1e-05, momentum=0.1, affine=True, track_running_stats=True)
          )
          (small_conv): Sequential(
            (conv): DepthWiseConv2dImplicitGEMM(384, 384, kernel_size=(5, 5), stride=(1, 1), groups=384, bias=False)
            (bn): SyncBatchNorm(384, eps=1e-05, momentum=0.1, affine=True, track_running_stats=True)
          )
        )
        (norm): LayerNorm()
        (pwconv1): Linear(in_features=384, out_features=1536, bias=True)
        (act): GELU()
        (pwconv2): Linear(in_features=1536, out_features=384, bias=True)
        (drop_path): DropPath()
      )
      (8): Block(
        (large_kernel): ReparamLargeKernelConv(
          (lkb_origin): Sequential(
            (conv): DepthWiseConv2dImplicitGEMM(384, 384, kernel_size=(47, 47), stride=(1, 1), groups=384, bias=False)
            (bn): SyncBatchNorm(384, eps=1e-05, momentum=0.1, affine=True, track_running_stats=True)
          )
          (small_conv): Sequential(
            (conv): DepthWiseConv2dImplicitGEMM(384, 384, kernel_size=(5, 5), stride=(1, 1), groups=384, bias=False)
            (bn): SyncBatchNorm(384, eps=1e-05, momentum=0.1, affine=True, track_running_stats=True)
          )
        )
        (norm): LayerNorm()
        (pwconv1): Linear(in_features=384, out_features=1536, bias=True)
        (act): GELU()
        (pwconv2): Linear(in_features=1536, out_features=384, bias=True)
        (drop_path): DropPath()
      )
    )
    (3): Sequential(
      (0): Block(
        (large_kernel): ReparamLargeKernelConv(
          (lkb_origin): Sequential(
            (conv): DepthWiseConv2dImplicitGEMM(768, 768, kernel_size=(13, 13), stride=(1, 1), groups=768, bias=False)
            (bn): SyncBatchNorm(768, eps=1e-05, momentum=0.1, affine=True, track_running_stats=True)
          )
          (small_conv): Sequential(
            (conv): DepthWiseConv2dImplicitGEMM(768, 768, kernel_size=(5, 5), stride=(1, 1), groups=768, bias=False)
            (bn): SyncBatchNorm(768, eps=1e-05, momentum=0.1, affine=True, track_running_stats=True)
          )
        )
        (norm): LayerNorm()
        (pwconv1): Linear(in_features=768, out_features=3072, bias=True)
        (act): GELU()
        (pwconv2): Linear(in_features=3072, out_features=768, bias=True)
        (drop_path): DropPath()
      )
      (1): Block(
        (large_kernel): ReparamLargeKernelConv(
          (lkb_origin): Sequential(
            (conv): DepthWiseConv2dImplicitGEMM(768, 768, kernel_size=(13, 13), stride=(1, 1), groups=768, bias=False)
            (bn): SyncBatchNorm(768, eps=1e-05, momentum=0.1, affine=True, track_running_stats=True)
          )
          (small_conv): Sequential(
            (conv): DepthWiseConv2dImplicitGEMM(768, 768, kernel_size=(5, 5), stride=(1, 1), groups=768, bias=False)
            (bn): SyncBatchNorm(768, eps=1e-05, momentum=0.1, affine=True, track_running_stats=True)
          )
        )
        (norm): LayerNorm()
        (pwconv1): Linear(in_features=768, out_features=3072, bias=True)
        (act): GELU()
        (pwconv2): Linear(in_features=3072, out_features=768, bias=True)
        (drop_path): DropPath()
      )
      (2): Block(
        (large_kernel): ReparamLargeKernelConv(
          (lkb_origin): Sequential(
            (conv): DepthWiseConv2dImplicitGEMM(768, 768, kernel_size=(13, 13), stride=(1, 1), groups=768, bias=False)
            (bn): SyncBatchNorm(768, eps=1e-05, momentum=0.1, affine=True, track_running_stats=True)
          )
          (small_conv): Sequential(
            (conv): DepthWiseConv2dImplicitGEMM(768, 768, kernel_size=(5, 5), stride=(1, 1), groups=768, bias=False)
            (bn): SyncBatchNorm(768, eps=1e-05, momentum=0.1, affine=True, track_running_stats=True)
          )
        )
        (norm): LayerNorm()
        (pwconv1): Linear(in_features=768, out_features=3072, bias=True)
        (act): GELU()
        (pwconv2): Linear(in_features=3072, out_features=768, bias=True)
        (drop_path): DropPath()
      )
    )
  )
  (norm): LayerNorm((768,), eps=1e-06, elementwise_affine=True)
  (head): Linear(in_features=768, out_features=1000, bias=True)
)
number of params: 38605768
LR = 0.00400000
Batch size = 64
Update frequent = 1
Param groups = {
  "decay": {
    "weight_decay": 0.05,
    "params": [
      "downsample_layers.0.0.weight",
      "downsample_layers.1.1.weight",
      "downsample_layers.2.1.weight",
      "downsample_layers.3.1.weight",
      "stages.0.0.large_kernel.lkb_origin.conv.weight",
…
